/usr/bin/python2.7 /home/sun/catkin_ws/src/cv_basics/scripts/DQN/dqncode.py
Using TensorFlow backend.
Model: "sequential"
_________________________________________________________________
Layer (type)                 Output Shape              Param #   
=================================================================
dense (Dense)                (None, 300)               108300    
_________________________________________________________________
activation (Activation)      (None, 300)               0         
_________________________________________________________________
dense_1 (Dense)              (None, 300)               90300     
_________________________________________________________________
activation_1 (Activation)    (None, 300)               0         
_________________________________________________________________
dense_2 (Dense)              (None, 21)                6321      
_________________________________________________________________
activation_2 (Activation)    (None, 21)                0         
=================================================================
Total params: 204,921
Trainable params: 204,921
Non-trainable params: 0
_________________________________________________________________
Model: "sequential_1"
_________________________________________________________________
Layer (type)                 Output Shape              Param #   
=================================================================
dense_3 (Dense)              (None, 300)               108300    
_________________________________________________________________
activation_3 (Activation)    (None, 300)               0         
_________________________________________________________________
dense_4 (Dense)              (None, 300)               90300     
_________________________________________________________________
activation_4 (Activation)    (None, 300)               0         
_________________________________________________________________
dense_5 (Dense)              (None, 21)                6321      
_________________________________________________________________
activation_5 (Activation)    (None, 21)                0         
=================================================================
Total params: 204,921
Trainable params: 204,921
Non-trainable params: 0
_________________________________________________________________
2021-04-03 02:04:19.696636: I tensorflow/core/platform/cpu_feature_guard.cc:142] Your CPU supports instructions that this TensorFlow binary was not compiled to use: AVX2 FMA
2021-04-03 02:04:19.701854: I tensorflow/stream_executor/platform/default/dso_loader.cc:42] Successfully opened dynamic library libcuda.so.1
…
